model.pt (torch, 3977 bytes, 3 tensors)

fc1.weight f4 [16, 24]
000000 b1 89 ce bd ed 0b 2f 3e ef 9e b1 3e 40 f8 db 3e
       -0.10084856 0.17094393 0.3469157 0.42962837
000010 8f 83 58 be d3 29 d8 3e 58 fd 37 be 8a f0 1c be
       -0.21143936 0.4221941 -0.17967737 -0.15326133
000020 c0 e6 79 3c c2 5a 80 be 18 c1 39 be 0a ea 7c be
       0.015252769 -0.25069243 -0.18140066 -0.24698654
000030 9e 87 9b 3e 5a 17 88 3e 5a b8 3a be ff c5 df 3e
       0.30376905 0.26580316 -0.18234387 0.43705747
000040 b8 db ba bc f4 df 5c be b0 5b f3 3e 46 d9 02 3f
       -0.022809848 -0.21569806 0.4753089 0.5111278
000050 04 08 23 bb f8 3d 54 bd 56 a5 5b 3e dc 4f 25 3d
       -0.0024876604 -0.05181691 0.2144979 0.040359363
000060 1c 4c 90 3d f4 56 82 bd 90 9f 76 3d ca 2a a5 bd
       0.07045767 -0.06364241 0.060210764 -0.08064802
000070 3c 85 04 bd 22 af 48 be e0 0a 4d 3d 54 c1 f8 3d
       -0.032353625 -0.19598058 0.0500592 0.121462494
000080 0c 3e 4e be bf dc b2 bd 28 98 00 be 2a fd 44 be
       -0.20140857 -0.0873351 -0.12558043 -0.192372
000090 7f 56 c9 bd a4 d5 01 bd 61 65 24 be b8 5e b9 bc
       -0.09830951 -0.031697884 -0.16054298 -0.022628173
0000a0 b6 67 16 be 2c 26 22 be 00 78 92 3a b8 46 3a 3e
       -0.14688 -0.15834874 0.0011174679 0.1819104
0000b0 1c 6e 73 bd eb 26 14 be 8c 08 36 bd 94 b9 a5 3d
       -0.05943118 -0.14467971 -0.044441745 0.08092037
0000c0 09 61 f2 bd 8c 33 19 be 7a a1 2f 3e 2c fb 9c 3d
       -0.11834914 -0.1496107 0.17151442 0.07665095
0000d0 98 15 6d 3d 3d 20 34 be 50 30 60 3d 40 c5 e6 bb
       0.05788192 -0.17590423 0.054733574 -0.007042557
0000e0 c8 78 0f be 7c 51 0b be 48 13 d3 bc e0 f7 ed 3c
       -0.14010918 -0.13605303 -0.02576603 0.02904886
0000f0 03 53 35 be 80 2e 23 bd 70 86 0b 3d 0e 09 48 3e
       -0.17707448 -0.039839268 0.034063756 0.19534704
000100 c0 93 40 3b 6b 17 44 be da 01 09 3e e9 c6 2e be
       0.002938494 -0.19149558 0.13379613 -0.17068066
000110 3a fe 28 be b0 8b 6b 3d e0 39 84 3d d7 00 0c be
       -0.1650323 0.057506263 0.06456351 -0.13672195
000120 dd a3 ad bd af 4a 26 3e e8 ca 85 3d ee 15 36 3e
       -0.0847852 0.16239427 0.06532842 0.17781803
000130 89 69 39 be fc 78 af 3e fc 19 27 be 98 45 00 be
       -0.18106665 0.3427199 -0.16318506 -0.12526548
000140 84 2a f9 bd a3 35 b0 bd b0 47 32 3e 2a af 43 3c
       -0.12166312 -0.086039804 0.17410159 0.011943618
000150 90 f3 ba 3e 8f e8 81 3e 74 51 dd bd d2 66 08 3f
       0.36513948 0.2537274 -0.108065516 0.5328189
000160 f2 50 27 be ca 47 1f 3c 63 79 cb 3e 47 b9 e5 3e
       -0.16339472 0.009721706 0.39741048 0.44867918
000170 9f ca 93 be 58 b4 a8 3d e6 b7 e6 3e b8 f9 5a 3d
       -0.28865525 0.08237523 0.45062178 0.053460807
000180 88 41 c4 3d e1 96 42 3d d7 b5 02 bd 1b 9b 8c be
       0.095828116 0.04750717 -0.031911697 -0.27462086
000190 56 eb 26 3f 16 f2 86 be d2 ab 17 3f 86 9a 6c 3e
       0.65202844 -0.26356572 0.5924655 0.23105821
0001a0 b4 54 d4 3d 6a 60 3d 3f 08 16 f7 bd 41 1a b4 3e
       0.10367718 0.7397524 -0.12064749 0.3517628
0001b0 ff 58 34 be 3f fe 91 be 9a 8b 6f 3e 4f b5 26 bd
       -0.17612074 -0.28514287 0.23393098 -0.040700253
0001c0 f4 0f 30 be 67 4f bf 3e 73 8a c2 bd fd 96 18 be
       -0.17193586 0.37365267 -0.09499063 -0.14901347
0001d0 79 ce 43 3e 28 dd 4f 3d b2 30 92 3d 6c 22 3e 3e
       0.19121732 0.05074802 0.07138194 0.18567818
0001e0 ae 97 4a 3e a0 40 81 3c 70 07 4f be c2 71 76 be
       0.19784424 0.015777886 -0.20217681 -0.24066833
0001f0 3f 6a bc 3e 65 67 28 3d 60 d3 d8 3e 29 7d 1e 3f
       0.3679981 0.04111423 0.42348766 0.6190973
000200 38 b1 3d bd fd 86 fe 3e 83 76 f0 bd 24 4f 10 3f
       -0.046311587 0.49712363 -0.11741354 0.5637076
000210 6d 06 c0 bc be 6a 8c bd e2 01 11 3f 8e be 83 be
       -0.023440564 -0.06856297 0.566435 -0.2573132
000220 9a b9 00 3e 9a aa e9 3e ec 53 47 bd e1 5e 85 3d
       0.12570801 0.4563797 -0.04866402 0.06512237
000230 5c 6d ec 3e b3 aa c9 bd 87 3d 64 bd 15 b5 a5 bd
       0.46177185 -0.098470114 -0.05572274 -0.08091179
000240 e0 ae 3d 3d 20 e3 08 be ed 58 f0 bd c0 19 bc 3c
       0.046309352 -0.13367891 -0.11735711 0.022961497
000250 bb 1f 87 bd 9b 07 16 be d0 b0 2b bc c0 97 0e be
       -0.06597849 -0.14651339 -0.010479167 -0.13925076
000260 b0 61 4f 3d 2a 05 d0 3d 73 a1 49 be 26 fc 9e bd
       0.05063027 0.10157235 -0.19690494 -0.07762937
000270 f6 b5 af bd 10 52 37 3d 0d 1a f7 bd 0e 06 0f be
       -0.08579628 0.044755995 -0.12065516 -0.13967153
000280 fa 45 37 3e 24 61 93 bd c0 76 43 3d 88 20 34 3e
       0.17897788 -0.071962625 0.04772067 0.17590535
000290 4a 72 b3 3d d2 01 80 bd d0 d7 19 3d fa 56 41 be
       0.08762033 -0.06250347 0.03755933 -0.18880835
0002a0 6c a3 f9 3d e6 c9 06 3f f3 62 0f 3e d3 d9 02 3f
       0.121893734 0.5265182 0.1400259 0.51113623
0002b0 8b 2e 9f bd da ef d4 3e bf 2b 87 bd 49 77 d5 bd
       -0.07772549 0.41589242 -0.06600141 -0.104231425
0002c0 ea 51 98 bd a7 8e 4d be 10 e0 84 3d e3 84 f8 bd
       -0.07437499 -0.20073949 0.06488049 -0.12134721
0002d0 06 13 f7 3e db e5 02 3f 6c 38 04 be 71 42 9a 3e
       0.482567 0.5113198 -0.12912148 0.30128816
0002e0 e8 fc 00 3e 14 54 67 be b9 b3 66 3e cb 72 39 3e
       0.12596476 -0.22590667 0.22529496 0.18110196
0002f0 45 b7 8d 3d 74 90 51 bd eb 09 b1 3e 6e 91 da bd
       0.069197215 -0.05116315 0.3457788 -0.1067227
000300 30 fd 64 3c ac 74 b0 bd 15 22 40 3c df cc 44 3d
       0.01397638 -0.086160034 0.011726876 0.048046943
000310 d9 25 f6 3e 07 21 34 be ba 1b ff 3e 3c 4b a2 3e
       0.4807575 -0.17590724 0.4982584 0.31698024
000320 c8 99 2d 3e 63 d6 bd 3e 40 04 07 bb 62 43 3f 3f
       0.16953194 0.37077627 -0.0020601898 0.74712193
000330 c3 cb 6b be af 0e 72 be 4e 1d 8a 3e 65 98 8f be
       -0.23026948 -0.23638414 0.26975483 -0.28045955
000340 5c 77 2e 3e 9a 4c 35 3f 6c ee d8 bd 61 07 5f bc
       0.1703772 0.7082001 -0.1059235 -0.013612599
000350 59 a7 c7 3e 8b c4 4e be 9c 25 f8 bd 86 61 d5 bd
       0.38994864 -0.20192163 -0.121165484 -0.10418992
000360 74 67 14 be 90 0c 92 3e d4 ef 93 3e 52 07 c7 3e
       -0.14492589 0.2852521 0.28893912 0.38872772
000370 30 44 71 bd 4a 73 e9 3e d1 59 ec bc 9f 99 01 be
       -0.05890292 0.4559577 -0.028851422 -0.12656258
000380 08 52 69 3d 14 53 f7 bd a0 31 01 be d4 78 42 be
       0.056962997 -0.12076393 -0.12616587 -0.18991405
000390 09 23 95 3e eb f3 1c 3e a2 3c ff bd 86 76 6d 3e
       0.29128292 0.15327422 -0.12462737 0.23189744
0003a0 46 85 dd bd da 72 c2 bd f4 34 53 3e 74 06 d4 3d
       -0.108164355 -0.094945624 0.20625669 0.10352793
0003b0 f4 b4 c0 3c e3 d7 3b be f4 cd d9 3e 7a cb 32 3e
       0.023523785 -0.18344073 0.42539942 0.17460433
0003c0 d0 ef d6 3c 66 ea 40 3e a6 02 2f be f9 17 74 be
       0.026237398 0.18839416 -0.17090854 -0.2383727
0003d0 26 47 97 3e df 5e 45 be ca 2b 4a 3e 6c 17 8c 3e
       0.2954647 -0.19274472 0.19743267 0.2736162
0003e0 8a 08 2d 3e cb 97 9d 3e 60 a9 55 3d a0 f4 36 3f
       0.16897789 0.3077987 0.05216348 0.7146702
0003f0 bd f9 2d be b4 fd 12 be 18 91 86 3e 7f 19 22 bd
       -0.16989799 -0.14354593 0.26282573 -0.039575096

fc1.bias f4 [16]
000000 3a 96 ec 3e 2a 17 99 bd 83 0a 32 be 52 c9 88 3e
       0.46208364 -0.07475121 -0.17386822 0.26716095
000010 cb 8f 20 3f b2 b9 df 3e a3 ec 61 be 34 5d 8e 3e
       0.6271941 0.43696362 -0.22062926 0.27805483
000020 c0 47 09 3f f5 9a 2f 3e 42 dc 3b 3f e8 88 ad 3e
       0.53625107 0.17148955 0.7338296 0.33893514
000030 5d 1d 38 3e f8 31 c8 3e c4 7f 12 3f 51 42 73 3e
       0.17979951 0.39100623 0.57226205 0.23755766

fc2.weight f4 [1, 16]
000000 2b 0b 13 3f f0 65 ea 3d c0 a4 f6 bb ff df 2e 3f
       0.57438916 0.11445224 -0.007526964 0.6831054
000010 e5 4a 37 bf a9 ba 58 bf 0b be 28 3e 51 a5 16 3f
       -0.71598655 -0.8465982 0.16478746 0.58846
000020 6c 51 29 bf 7a 6c 0d 3f c1 8f 30 bf 07 33 00 3f
       -0.66139865 0.5524365 -0.6896935 0.5007786
000030 db 7b bb 3e 50 98 58 bf ce 09 06 bf b9 8e 2c 3f
       0.36617932 -0.8460741 -0.5235871 0.6740528
