model.pt (torch, 3977 bytes, 3 tensors)

fc1.weight f4 [16, 24]
0.152408 -0.1516991 0.12440464 -0.17386042 -0.2088452 0.059004962 0.121640146 -0.12925734
-0.047805876 0.025308866 0.15973648 -0.003677352 0.043938816 -0.048758656 -0.090538606 -0.12370514
-0.13239932 -0.19024836 0.06379101 0.034475893 -0.08731121 0.053987324 -0.05363314 -0.11830872
0.13907745 -0.1704731 0.02927658 -0.018033355 -0.17621814 -0.032863945 -0.19504423 0.11608952
-0.09815609 -0.09554542 -0.09102299 0.03568563 -0.13886897 -0.18511888 0.12466124 -0.06352566
-0.061938703 -0.14750895 -0.20023966 0.04721716 0.106188685 0.15746126 0.15699953 0.14739436
0.11106244 0.31364137 0.39564902 0.49710247 -0.20178255 0.31990498 -0.1216657 -0.24050626
-0.16965625 -0.41778326 0.03168136 -0.22880524 0.28941405 0.5030523 -0.25741306 0.50070906
-0.19530372 -0.23529091 0.44253433 0.25699914 -0.15558034 -0.0813852 0.35120395 0.040313885
0.08086011 -0.09964128 -0.031951502 0.18502553 -0.14409749 -0.05906039 -0.007370867 -0.19495335
-0.13766651 0.07866396 -0.027453274 -0.15691549 0.2588735 0.31279638 0.044536695 -0.21070327
-0.1530096 -0.07996366 0.35271487 -0.21994112 -0.13962099 0.01195322 0.19776174 -0.1616077
0.11606264 0.04846943 -0.03702624 -0.22064008 0.34893468 0.05411227 0.5187414 0.39066443
0.18271002 0.60839766 -0.17282307 0.17330545 -0.21180482 -0.025943816 0.36082944 -0.208601
-0.096088596 0.52461547 -0.14250928 0.07145522 0.5471496 0.11345267 -0.27075008 -0.107354246
-0.14385447 -0.009918628 0.0804722 -0.067987 0.17975107 -0.07456088 -0.026729375 0.04411322
-0.06730129 -0.1634835 -0.07307793 -0.13314316 -0.07984404 0.10876192 0.033768788 0.09450118
-0.14188144 -0.06489912 -0.049011037 0.09736561 -0.12849857 -0.03246668 -0.036597613 0.075862795
0.012919232 0.12168346 -0.18479039 0.1148678 0.73758626 -0.14397235 0.5834235 0.45424947
-0.14099647 0.69097006 -0.1384745 0.21304752 -0.2684169 -0.06439638 0.39449027 0.0058674794
-0.1525073 0.24640563 -0.07109575 -0.17871785 0.49073994 -0.11896544 -0.22069325 0.1597231
-0.18134294 0.48301172 0.35135442 0.43507168 -0.20790264 0.2795386 -0.26228613 -0.25195554
-0.03361264 -0.22780518 0.15698543 -0.12570219 0.55981153 0.41523957 0.09048357 0.49844375
-0.19388448 -0.21916845 0.48308825 0.63322556 -0.07887173 -0.16597016 0.47316965 0.0412706
-0.1104919 -0.2201811 0.05994385 -0.20768186 0.65527576 -0.15364225 0.26527384 0.2551897
-0.08390421 0.48106053 0.15650415 0.351999 0.038758665 -0.23542301 0.3007556 -0.100435555
-0.18113044 0.21366517 -0.19652407 -0.031763926 0.27724588 -0.12605244 -0.28557578 -0.03881973
-0.17492415 -0.023255933 -0.034226958 -0.03886444 0.41333136 -0.059688453 0.5293227 0.7358526
-0.11159256 0.32004055 -0.18077317 0.47912562 -0.20029941 -0.019726137 0.54456705 -0.20402414
-0.14363873 0.23258741 -0.00018661474 0.026958443 0.30356243 -0.1912932 -0.23175868 -0.13259076
0.10381013 -0.057803426 0.105540805 -0.25602663 0.3507976 -0.26473796 0.2878539 0.5581537
-0.05224161 0.64076054 0.017996281 0.2047455 -0.11466708 -0.053552873 0.57703155 -0.12957689
00000000: d810 1c3e 0257 1bbe dcc7 fe3d 7708 32be
00000010: 84db 55be 30af 713d 781e f93d 095c 04be
00000020: 18d0 43bd 8a54 cf3c f691 233e bbff 70bb
00000030: 30f9 333d 28b7 47bd 4e6c b9bd 1f59 fdbd
00000040: b093 07be 77d0 42be dca4 823d 9836 0d3d
00000050: 38d0 b2bd d021 5d3d 6cae 5bbd d84b f2bd
00000060: 526a 0e3e 8090 2ebe 70d5 ef3c b0ba 93bc
00000070: 8772 34be 589c 06bd adb9 47be 58c0 ed3d
00000080: 0f06 c9bd 51ad c3bd 436a babd 182b 123d
00000090: ab33 0ebe ce8f 3dbe 644e ff3d be19 82bd
000000a0: 70b3 7dbd 960c 17be a00b 4dbe c866 413d
000000b0: 7479 d93d 863d 213e 7cc4 203e 8cee 163e
000000c0: b474 e33d 9a95 a03e 8292 ca3e 3784 fe3e
000000d0: 16a0 4ebe 96ca a33e de2b f9bd 4647 76be
000000e0: 5eba 2dbe b0e7 d5be 50c4 013d ec4b 6abe
000000f0: 142e 943e 09c8 003f a5cb 83be 782e 003f
00000100: b3fd 47be 1af0 70be dc93 e23e 6495 833e
00000110: 7450 1fbe 49ad a6bd 01d1 b33e 2c20 253d
00000120: fc99 a53d ba10 ccbd 94df 02bd 5577 3d3e
00000130: 4b8e 13be 4fe9 71bd 5087 f1bb daa1 47be
00000140: 73f8 0cbe 921a a13d b0e5 e0bc 74ae 20be
00000150: 118b 843e d926 a03e 1c6c 363d 99c2 57be
00000160: 8cae 1cbe fdc3 a3bd 0b97 b43e 3f38 61be
00000170: cef8 0ebe 70d7 433c 0e82 4a3e 7d7c 25be
00000180: 40b2 ed3d e287 463d d4a8 17bd 79ef 61be
00000190: 91a7 b23e d4a4 5d3d 3dcc 043f 2b05 c83e
000001a0: 5618 3b3e f3bf 1b3f 88f8 30be fc76 313e
000001b0: 5de3 58be 2088 d4bc a3be b83e 809b 55be
000001c0: 19ca c4bd 334d 063f f4ed 11be 1d57 923d
000001d0: ff11 0c3f e059 e83d c19f 8abe 8bdc dbbd
000001e0: 964e 13be be81 22bc 9cce a43d c53c 8bbd
000001f0: aa10 383e 60b3 98bd 90f7 dabc 10b0 343d
00000200: 42d5 89bd 3868 27be e2a9 95bd ae56 08be
00000210: 4685 a3bd 92be de3d 2451 0a3d d689 c13d
00000220: 5e49 11be d4e9 84bd ccbf 48bd 9f67 c73d
00000230: 2195 03be c8fb 04bd 61e7 15bd f45d 9b3d
00000240: 30ab 533c 2e35 f93d b139 3dbe cf3f eb3d
00000250: 74d2 3c3f 7d6d 13be 3e5b 153f 6393 e83e
00000260: 6161 10be 6ae3 303f 42cc 0dbe 2129 5a3e
00000270: f16d 89be 40e2 83bd a1fa c93e fc43 c03b
00000280: e02a 1cbe c251 7c3e a69a 91bd d001 37be
00000290: 4442 fb3e 27a4 f3bd 69fd 61be 748e 233e
000002a0: f7b1 39be 504d f73e bae4 b33e b7c1 de3e
000002b0: 6ee4 54be af1f 8f3e 5e4a 86be 5100 81be
000002c0: 68ad 09bd c345 69be cac0 203e 13b8 00be
000002d0: cf4f 0f3f 489a d43e 734f b93d 0534 ff3e
000002e0: a789 46be b26d 60be 5857 f73e 121b 223f
000002f0: 8087 a1bd 15f4 29be 4b43 f23e 5c0b 293d
00000300: 9449 e2bd 2777 61be af87 753d 8eaa 54be
00000310: 27c0 273f 6554 1dbe f9d1 873e 39a8 823e
00000320: f8d5 abbd 914d f63e a042 203e 3739 b43e
00000330: 68c1 1e3d bb12 71be a3fc 993e 28b1 cdbd
00000340: 427a 39be 0bcb 5a3e 9b3d 49be e41a 02bd
00000350: 2cf3 8d3e e413 01be fd36 92be 7001 1fbd
00000360: 511f 33be 3a83 bebc 9131 0cbd 5230 1fbd
00000370: 2ba0 d33e e17b 74bd b181 073f d660 3c3f
00000380: a48a e4bd 5bdc a33e 9a1c 39be f44f f53e
00000390: 4a1b 4dbe b598 a1bc bf68 0b3f b4eb 50be
000003a0: 0816 13be 652b 6e3e 03ae 43b9 f4d7 dc3c
000003b0: 896c 9b3e 5de2 43be 2652 6dbe dfc5 07be
000003c0: 689a d43d 49c3 6cbd c725 d83d ec15 83be
000003d0: be9b b33e bc8b 87be 9661 933e 29e3 0e3f
000003e0: 4cfb 55bd e208 243f f06c 933c cea8 513e
000003f0: 93d6 eabd 425a 5bbd 57b8 133f ceaf 04be

fc1.bias f4 [16]
-0.07821437 -0.17927882 0.6196055 -0.012382329 0.5425565 -0.17629538 0.42220294 0.39894113
0.76775587 0.3890722 0.5111337 0.40871787 0.41180015 0.5674324 0.6868644 -0.26202232
00000000: db2e a0bd de94 37be 779e 1e3f 41df 4abc
00000010: fce4 0a3f c786 34be fc2a d83e 0342 cc3e
00000020: a68b 443f 7934 c73e a8d9 023f 7843 d13e
00000030: 78d7 d23e 4043 113f 58d6 2f3f ca27 86be

fc2.weight f4 [1, 16]
0.035227776 -0.15106797 0.6886181 0.15862428 -0.67429507 0.06724558 -0.7575028 0.6220016
-0.61784035 -0.6052515 -0.6221274 -0.66543025 0.7041583 -0.5913123 0.561535 0.004881716
00000000: 004b 103d 90b1 1abe 4749 303f 676e 223e
00000010: 9a9e 2cbf 0db8 893d b4eb 41bf 7f3b 1f3f
00000020: c92a 1ebf c3f1 1abf be43 1fbf a359 2abf
00000030: b843 343f 3e60 17bf c2c0 0f3f cdf6 9f3b
