models/model.pt (torch, 3977 bytes, 3 tensors)

fc1.weight f4 [16, 24]
0.099010706 0.13019699 0.14820671 0.43302155 -0.33729944 0.27064618 -0.25240433 -0.15518813
-0.13512322 -0.11483882 -0.11636095 -0.14570124 0.22370413 0.15976492 -0.1496884 0.5399921
-0.11264939 -0.126471 0.18416166 0.27348772 -0.17998895 -0.06330094 0.55026793 -0.0016673058
-0.20238912 0.09147745 -0.19755141 -0.15187791 0.7038764 -0.27712336 0.29810816 0.46133226
-0.017328367 0.8336545 0.20140314 0.570199 -0.07252551 -0.21121077 0.53417665 -0.076705575
0.099865675 0.2730214 -0.014268843 0.05581999 0.49576747 -0.0025236756 -0.07927229 -0.0027920306
-0.15268007 0.039761394 -0.034496352 -0.17237604 0.636914 -0.20335935 0.60673296 0.39907125
-0.07309604 0.43554035 -0.1673691 0.4220479 -0.18640652 -0.02882054 0.6462417 -0.19570068
-0.16688552 0.30606586 -0.029243914 -0.0026401281 0.21751 -0.06468098 -0.24499553 -0.11549115
-0.09675424 0.50555706 0.31255433 0.27036956 -0.15238616 0.24160919 -0.20389389 -0.06514305
0.19159591 -0.33632553 0.11595091 -0.24471705 0.46187645 0.46814257 -0.15433829 0.4374583
0.14952257 -0.21072091 0.4259653 0.36891505 -0.14797431 0.10299781 0.46573353 0.12436393
-0.14757061 0.37979114 0.13087766 0.4571057 -0.19928242 0.38623148 -0.09163545 -0.15662049
0.122397274 -0.12302506 0.0016746968 -0.0818174 0.17026827 0.4593719 -0.11072471 0.3168972
-0.16197924 -0.10247477 0.28760403 0.29073754 -0.16520545 0.09151387 0.16245651 -0.046556666
0.01589714 0.079880685 -0.1296466 -0.17751576 0.27773327 -0.23817101 0.5864947 0.49600887
-0.013641864 0.2314876 0.13247392 0.67661023 -0.37192363 0.0027298247 0.4650883 -0.14495242
-0.12021119 0.5815982 -0.1758085 -0.21006384 0.5009468 0.15498307 -0.038103458 0.14053965
0.028477058 -0.058016643 0.18288943 0.108137935 -0.1464192 -0.13793021 0.045484394 0.031330124
-0.04659207 -0.18542449 -0.036036983 0.056866318 -0.10309014 0.12282888 -0.09582776 -0.20112015
0.00930126 -0.14099063 -0.1672951 0.20044884 0.18688753 0.07436001 -0.075043924 0.0036684424
-0.12648466 0.37602416 0.3266903 0.4139225 -0.1633608 0.4179613 -0.22468713 -0.09643773
-0.1022001 -0.18634537 -0.07933486 -0.081575565 0.47825044 0.1342785 -0.22642449 0.43627235
-0.19425505 -0.22087502 0.28245357 0.105259776 -0.12535116 -0.0010733306 0.341412 0.12526909
-0.1850618 -0.23615341 0.08533068 0.058933843 0.7038128 -0.14007227 0.46427235 0.23966216
-0.039493963 0.36495927 -0.17453696 0.609708 -0.27767688 0.08610479 0.3342292 0.023606919
-0.06563747 0.28798336 -0.2635772 -0.3381751 0.613012 0.121084005 -0.17768042 0.1244109
0.05530289 -0.096284814 -0.06874259 -0.20001486 0.0054821586 -0.1632464 -0.008703947 -0.15685709
0.049812913 -0.061582297 -0.008343294 -0.16459356 -0.14627075 0.20148459 0.18160379 -0.13128996
-0.005516723 -0.062689245 -0.11990189 0.20371398 -0.011999011 -0.078633696 0.0027968735 -0.19898361
-0.044437215 -0.011910565 -0.10516669 -0.2567245 0.75434166 -0.16864388 0.8147157 0.5433363
-0.19858459 0.7150372 0.19466615 0.43979535 -0.038450267 -0.29050076 0.5525735 -0.071685985
00000000: 20c6 ca3d 5c52 053e 80c3 173e 00b5 dd3e
00000010: 83b2 acbe 2392 8a3e 243b 81be a3e9 1ebe
00000020: be5d 0abe 9e30 ebbd a64e eebd b532 15be
00000030: b212 653e 6a99 233e ea47 19be ec3c 0a3f
00000040: b9b4 e6bd 9d81 01be e094 3c3e 9506 8c3e
00000050: 064f 38be eca3 81bd 5cde 0c3f 8089 daba
00000060: 183f 4fbe 8858 bb3d eb4a 4abe e285 1bbe
00000070: 3e31 343f 1de3 8dbe a2a1 983e be33 ec3e
00000080: 38f4 8dbc 626a 553f a03c 4e3e 90f8 113f
00000090: 4188 94bd a347 58be cdbf 083f d017 9dbd
000000a0: 6086 cc3d 76c9 8b3e dec7 69bc 80a3 643d
000000b0: 3cd5 fd3e 4064 25bb 8359 a2bd 80fa 36bb
000000c0: 2a58 1cbe d8dc 223d 0c4c 0dbd 5883 30be
000000d0: cc0c 233f 6f3d 50be da52 1b3f 1153 cc3e
000000e0: 60b3 95bd 25ff de3e ce62 2bbe aa16 d83e
000000f0: 5ae1 3ebe 0e19 ecbc 1970 253f c265 48be
00000100: 0ae4 2abe aab4 9c3e ef90 efbc 0006 2dbb
00000110: f1ba 5e3e 7677 84bd 1ce0 7abe a086 ecbd
00000120: 1627 c6bd 306c 013f 1f07 a03e e16d 8a3e
00000130: 1e0b 1cbe 6668 773e 8fc9 50be b869 85bd
00000140: b831 443e dc32 acbe ac77 ed3d 1b97 7abe
00000150: 127b ec3e 62b0 ef3e db0a 1ebe 89fa df3e
00000160: 721c 193e 39c7 57be 2018 da3e 6fe2 bc3e
00000170: 9486 17be 84f0 d23d a074 ee3e 84b2 fe3d
00000180: c01c 17be fc73 c23e cb04 063e c209 ea3e
00000190: b110 4cbe 22c0 c53e 5eab bbbd 1f61 20be
000001a0: 6cab fa3d 90f4 fbbd 8081 db3a e28f a7bd
000001b0: ce5a 2e3e cb32 eb3e a3c3 e2bd 5a40 a23e
000001c0: e3dd 25be 4bde d1bd d640 933e 8ddb 943e
000001d0: 9e2b 29be a06b bb3d 005b 263e 34b2 3ebd
000001e0: b83a 823c 7c98 a33d 14c2 04be b1c6 35be
000001f0: 0e33 8e3e 1ae3 73be 8424 163f e0f4 fd3e
00000200: 2082 5fbc 160b 6d3e 3ea7 073e 5436 2d3f
00000210: c66c bebe dce6 323b 0e20 ee3e 686e 14be
00000220: 4931 f6bd 9fe3 143f 2507 34be fa1a 57be
00000230: 0d3e 003f e2b3 1e3e 5f12 1cbd a0e9 0f3e
00000240: b848 e93c dca2 6dbd 5e47 3b3e 6c77 dd3d
00000250: eaee 15be 943d 0dbe d84d 3a3d 0454 003d
00000260: 54d7 3ebd ebdf 3dbe 849b 13bd a8ec 683d
00000270: ec20 d3bd b58d fb3d 5841 c4bd 71f2 4dbe
00000280: 5064 183c d95f 10be 684f 2bbe 7642 4d3e
00000290: 725f 3f3e 104a 983d a1b0 99bd 406a 703b
000002a0: 3285 01be 3d86 c03e f343 a73e a6ed d33e
000002b0: 0e48 27be 06ff d53e 6214 66be 2581 c5bd
000002c0: 494e d1bd 52d1 3ebe 517a a2bd 1711 a7bd
000002d0: 3edd f43e 4e80 093e d2db 67be 175f df3e
000002e0: ccea 46be 102d 62be c19d 903e 7092 d73d
000002f0: 0e5c 00be 00af 8cba 8ecd ae3e 8a46 003e
00000300: d780 3dbe 33d2 71be dac1 ae3d 9d64 713d
00000310: 132d 343f 1b6f 0fbe 1bb5 ed3e ff69 753e
00000320: 6cc4 21bd f1db ba3e d1b9 32be d315 1c3f
00000330: aa2b 8ebe b557 b03d 1720 ab3e 4c63 c13c
00000340: f06c 86bd 8e72 933e 97f3 86be 4925 adbe
00000350: 5bee 1c3f e4fa f73d dbf1 35be 24cb fe3d
00000360: 4885 623d f930 c5bd eac8 8cbd b2d0 4cbe
00000370: aea3 b33b 102a 27be 009b 0ebc 259f 20be
00000380: a008 4c3d b83d 7cbd 50b2 08bc 378b 28be
00000390: 00c8 15be fa51 4e3e 58f6 393e e070 06be
000003a0: a0c5 b4bb 3863 80bd 1f8f f5bd 669a 503e
000003b0: 8097 44bc b40a a1bd c04b 373b 5cc2 4bbe
000003c0: cc03 36bd 8824 43bc a261 d7bd 6571 83be
000003d0: 891c 413f fbb0 2cbe 3591 503f 1618 0b3f
000003e0: c259 4bbe ae0c 373f 9056 473e db2c e13e
000003f0: 077e 1dbd 84bc 94be 7575 0d3f 1ad0 92bd

fc1.bias f4 [16]
0.45208886 0.527641 0.6594663 0.4234299 0.3222065 0.7430503 -0.19493417 0.34970152
0.57319474 -0.16505547 0.53096616 0.33761322 -0.14610264 0.5866444 -0.16286278 0.40288422
00000000: 3178 e73e 7b13 073f c9d2 283f cecb d83e
00000010: 40f8 a43e 8b38 3e3f d39c 47be 140c b33e
00000020: e4bc 123f 4d04 29be 66ed 073f a4db ac3e
00000030: ee9b 15be 542e 163f 80c5 26be d746 ce3e

fc2.weight f4 [1, 16]
0.6478865 -0.7032081 -0.7062923 0.61282897 0.41766727 -0.6947279 -0.13828847 0.38132745
-0.7119199 0.047845684 -0.76243746 0.5622221 0.21119502 0.42903382 0.24700788 0.45245388
00000000: e4db 253f 7205 34bf 92cf 34bf 5ce2 1c3f
00000010: 7cd8 d53e b0d9 31bf 7e9b 0dbe 5a3d c33e
00000020: 6240 36bf d6f9 433d 1a2f 43bf caed 0f3f
00000030: 8243 583e 52aa db3e a2ef 7c3e 09a8 e73e
