models/model.pt (torch, 3977 bytes, 3 tensors)

fc1.weight f4 [16, 24]
000000 62 d1 88 bd 79 15 84 bd 92 49 02 be cc ad 03 be
       -0.066805616 -0.06449408 -0.12723377 -0.12859267
000010 f6 32 f5 3e 89 6f d6 bd c7 6e 0e 3f 65 f1 0d 3f
       0.47890443 -0.104704924 0.5563778 0.55446464
000020 d8 38 ec 3d b4 c4 13 3f 6b 56 28 be cb a8 f0 3e
       0.115342796 0.5772202 -0.16439216 0.4700378
000030 2b b4 40 be a2 84 c4 3c f5 ac 2f 3f 64 76 c4 bd
       -0.18818729 0.023989026 0.68623286 -0.09592894
000040 f7 05 39 be e8 48 b9 3e 75 94 a7 be b1 49 91 be
       -0.18068682 0.36188436 -0.3273045 -0.28376535
000050 67 69 15 3f 35 65 4d be 40 5a fe bd 18 22 8c bc
       0.58363956 -0.20058139 -0.124195576 -0.0171061
000060 5c d2 0a be bf 9f 5c 3e 35 d3 8a 3e 4c 0a eb 3e
       -0.13556808 0.21545313 0.27114263 0.45906293
000070 4a f1 9c be 69 0b fe 3e 69 58 41 be d1 76 41 be
       -0.3065284 0.4961808 -0.18881382 -0.18892981
000080 80 f1 4e bb 7e 66 54 be 10 4c 09 be c0 00 22 be
       -0.003157705 -0.20742223 -0.13407922 -0.15820599
000090 0c 16 73 3e 3e 34 70 3e 90 9f 0c be 2a 90 a4 3e
       0.23738879 0.23457429 -0.13732743 0.32141238
0000a0 e4 d6 c1 3d bd 39 d3 bd f3 e0 8c 3e 34 c8 e8 3e
       0.09464815 -0.10313747 0.27515373 0.45465243
0000b0 4f 21 c0 be 2d 0e 11 be eb 2d 09 3f fe f8 14 be
       -0.37525412 -0.14165564 0.5358569 -0.14548108
0000c0 2a c4 26 3e 53 ec 15 3e 16 c4 a6 3e 1f 6b a5 3e
       0.16285768 0.14640932 0.32571477 0.3230829
0000d0 90 b3 ee 3c 3b df 1f 3e 0e bf 9a bd ca 38 4e be
       0.029138356 0.156125 -0.07555972 -0.20138851
0000e0 7c fb f8 3d ab 2a 20 be dc b0 c8 3d 5d 38 63 bd
       0.12157342 -0.15641277 0.09799358 -0.055473674
0000f0 28 f0 19 3e ac b6 99 3e 12 43 12 3d a5 27 fb 3e
       0.15033019 0.3002218 0.035708494 0.49053684
000100 78 d7 89 3d 3e 31 9e 3d f6 7d 63 3e 31 0e ef 3e
       0.067305505 0.07724236 0.22216019 0.46690515
000110 34 fc 77 be d4 c4 ca 3d bd 4c 09 3f c8 ec 7a 3d
       -0.24217302 0.09900823 0.5363272 0.06126097
000120 4c 14 28 3e a2 11 e7 3e e6 99 9d 3e ea a7 f0 3e
       0.16413993 0.4513064 0.30781478 0.47003108
000130 13 92 03 be 44 f8 c1 3e 78 bd f7 bd 87 7f 8d be
       -0.12848692 0.37884724 -0.12096685 -0.27636358
000140 ec 6a 99 3d e5 cb 8c be 50 7a 32 3e 3e 6b 81 bd
       0.07491097 -0.2749931 0.17429471 -0.06319283
000150 85 a6 c3 3e eb 95 21 3e 01 79 f0 bb 2f cf ff 3e
       0.38212982 0.15779845 -0.0073386435 0.49962756
000160 98 c9 b1 3d 15 d4 7b be c2 24 93 3e 1b f6 e8 3e
       0.08681029 -0.24592622 0.2873898 0.45500264
000170 57 d0 c0 bd 58 da 33 3d d0 01 3a 3e 2c a4 2c 3d
       -0.09414738 0.0439094 0.18164754 0.042148754
000180 58 eb 94 3d ce db 75 be 31 a1 2b be 7b f1 c4 3c
       0.07271451 -0.2400963 -0.16760708 0.024040928
000190 52 06 9b 3e 35 b9 78 bc 20 27 08 bd 99 c6 0c be
       0.3027826 -0.015180876 -0.033240438 -0.13747634
0001a0 94 a7 8c bd 97 a7 1a 3f 64 c5 c3 3d 60 8f 6a 3f
       -0.068679005 0.6041197 0.09559134 0.9162502
0001b0 e5 81 8e be a6 27 6b be 0c 97 78 bd 8d d7 07 be
       -0.27833477 -0.22964343 -0.060690925 -0.1326582
0001c0 b8 3c 95 3d ca 52 7e 3f f8 35 67 3d 1f 28 6c bd
       0.07286972 0.99345076 0.056447953 -0.05765545
0001d0 7c ac a5 3f 7f 80 27 be e1 30 28 bd 76 4b ce bd
       1.2943263 -0.16357611 -0.04106224 -0.10072987
0001e0 f0 91 ea 3d cd 14 af 3e df 3d bc 3e 1e 6e 31 3e
       0.114536166 0.34195557 0.36765954 0.17327163
0001f0 9e a3 05 be de 62 c5 3e a2 13 42 be 7a 83 29 be
       -0.13050696 0.38551992 -0.18952802 -0.1655406
000200 7c bd 17 be e9 c6 b3 be 2a 90 8d bd 85 1a 9d bd
       -0.14818376 -0.35112694 -0.06912263 -0.07671074
000210 28 55 f7 3e f1 1b 0c 3f d2 aa 36 be 17 da b7 3e
       0.48307157 0.54730135 -0.178386 0.35908577
000220 40 0a 30 3e b7 89 71 be c2 f7 83 3e 72 06 c1 3e
       0.1719141 -0.2358769 0.25774962 0.3770023
000230 a5 47 03 be 0a 0d c8 bd 26 1b c7 3e f2 cb 17 be
       -0.12820299 -0.09768112 0.388879 -0.14823893
000240 4c e1 16 3d d6 67 17 be db fb 23 be 30 40 17 bd
       0.036835954 -0.14785704 -0.16014044 -0.03692645
000250 5e f6 9a bd 80 fb fa bb 3f 8c d1 bd 0b 35 67 bd
       -0.07566522 -0.0076593757 -0.10231828 -0.05644707
000260 d4 bc f1 3d c1 03 a4 bd d8 22 8a 3d a8 90 ec bd
       0.11803594 -0.080085285 0.06744927 -0.115510285
000270 97 7f c9 bd f4 a5 c4 bd 37 62 82 be 52 a9 f6 bd
       -0.09838789 -0.096019655 -0.25465557 -0.12044014
000280 07 b4 1c be 58 0c 40 be 4a f5 15 be 60 f5 8f 3b
       -0.1530305 -0.18754709 -0.14644352 0.0043932647
000290 98 70 b5 bd f4 99 0a bd 8c ff 8e bd 3c 05 8b 3d
       -0.08859366 -0.033838227 -0.069823354 0.06788108
0002a0 dd 71 4b be 46 8f 8a bd 24 85 71 bc 53 c0 88 be
       -0.19867654 -0.067656085 -0.014741216 -0.26709232
0002b0 7a 12 24 3f 55 4c 34 be e9 86 26 3f 81 33 fb 3e
       0.64090693 -0.17607243 0.65049607 0.49062732
0002c0 62 53 02 be a4 fc 4d 3f 53 77 bf bd 0b eb 1b 3f
       -0.1272712 0.80463624 -0.09348931 0.6090552
0002d0 9e bc a2 3c 53 35 ee bd c0 79 e0 3e 52 e5 94 3c
       0.01986533 -0.116312645 0.43842888 0.018175755
0002e0 48 80 45 be 44 8d ef 3e ec 2e 0e be 84 b8 74 bd
       -0.19287217 0.46787465 -0.13885087 -0.05974628
0002f0 53 eb b5 3e 43 23 24 be c1 e9 8a be 80 c4 88 3d
       0.355311 -0.16029076 -0.27131465 0.066781044
000300 1f 1a 4d be 90 e1 4d 3e cc e3 b7 3e 99 1e 06 3f
       -0.20029496 0.20105577 0.35915983 0.5239044
000310 58 76 b3 be 68 05 66 3e 0a e1 01 be 15 58 21 be
       -0.35051227 0.22463 -0.12683502 -0.15756257
000320 82 c1 0d 3e 5b c3 6c be 12 82 3a be 51 63 81 be
       0.13843349 -0.23121397 -0.1821368 -0.25271085
000330 b0 da b6 3e 3c 45 b6 3e 19 84 b0 be 45 8d f4 3e
       0.3571372 0.35599697 -0.34475783 0.4776403
000340 08 ec a2 3c cd bc 54 bd fc 7b 01 3f 62 bf ad 3e
       0.01988794 -0.051937867 0.5057981 0.33935076
000350 73 b6 8d be ec 86 8c 3d 73 c3 3a 3e 52 b6 e4 bd
       -0.2767826 0.06861672 0.1823862 -0.11167587
000360 5c 28 09 bd 79 85 f2 bd b6 12 33 be 29 3a 1a be
       -0.033485755 -0.11841864 -0.17487606 -0.15061249
000370 78 c7 37 3f e9 1a 84 be bb d3 8f 3e 78 08 1b 3f
       0.7178874 -0.2580178 0.28091225 0.605598
000380 58 38 bb 3d 3e ff 21 3f 78 8d 58 bd a6 97 28 3f
       0.09141606 0.63280094 -0.05286929 0.658564
000390 18 d8 98 bc 44 56 0c be ca 57 9a 3e 07 eb d1 bc
       -0.018657729 -0.13704783 0.30145103 -0.025624765
0003a0 60 a7 20 3e 38 12 2e 3f 5b 20 16 be 47 b0 72 be
       0.15688848 0.6799655 -0.1466078 -0.23700057
0003b0 31 98 a2 3e 90 04 0a 3d 74 49 23 be 20 d6 5d bd
       0.31756738 0.033695757 -0.15945989 -0.054159284
0003c0 30 f7 05 3c 5c b1 4b be 63 f5 87 be 04 6e cc bc
       0.00817661 -0.19891876 -0.26554403 -0.024954803
0003d0 fd a2 e1 3e ea 19 44 be d4 d9 10 3f 46 00 05 3f
       0.44069663 -0.1915051 0.5658238 0.5195354
0003e0 90 45 3b be b0 c5 12 3f 8d 33 35 be a8 70 0f 3f
       -0.18288255 0.573329 -0.17695446 0.56031275
0003f0 9c 48 12 be 1c e6 92 be 3c d1 86 3e 73 6a 40 be
       -0.14285511 -0.28691185 0.26331508 -0.18790607

fc1.bias f4 [16]
000000 b9 ba 3c 3f 76 82 03 3f 0f 93 f4 3d b5 7b ce 3e
       0.73722416 0.5137094 0.11942112 0.40328756
000010 72 a4 16 3e 88 a9 e1 3e 5a dc 7c b8 0a 77 41 3f
       0.14711168 0.44074655 -6.02867e-05 0.75572264
000020 1a db 14 3f 42 20 10 3f 20 b1 26 3f 48 38 4a be
       0.5814682 0.5629922 0.6511402 -0.19748032
000030 47 16 54 3e d8 a5 39 be 89 75 09 3f 00 23 1b 3f
       0.20711623 -0.1812967 0.5369497 0.6060028

fc2.weight f4 [1, 16]
000000 28 70 35 bf 48 43 e6 3e a5 f0 1e 3f af 96 14 3f
       -0.7087426 0.44973207 0.62085944 0.58042425
000010 31 68 9a be c0 5d 18 3f c5 9c 37 bc d7 8b 11 bf
       -0.30157617 0.5951805 -0.01120681 -0.56854004
000020 92 95 03 3f 7a f7 26 bf f1 d6 1c bf 52 ee 9a 3d
       0.514001 -0.6522137 -0.61265475 0.07564987
000030 17 c9 1a 3f 9b ea e4 bd 48 d1 d5 3e a5 38 20 bf
       0.6046309 -0.1117756 0.4176123 -0.6258643
