models/model.pt (torch, 3977 bytes, 3 tensors)

fc1.weight f4 [16, 24]
0.024676263 0.029201 -0.16706821 -0.20804015 0.29075712 -0.13394137 0.23954906 0.24923992
-0.027341187 0.5859491 0.07850546 0.48381507 -0.12252657 -0.0024024248 0.41555405 0.007251768
-0.19633435 0.61011213 -0.067451745 -0.01803533 0.6007294 -0.09067765 -0.1660192 0.17494366
-0.14579004 -0.14334445 -0.14970112 -0.121273465 0.43058863 -0.009659188 0.3327769 0.50158584
-0.02817665 0.44898072 0.09879738 0.59572697 -0.05931668 -0.1994555 0.3997107 -0.16662249
-0.14864802 0.43187034 -0.04389299 -0.011089069 0.3526649 -0.021925822 -0.04809717 0.10170677
0.20063645 -0.0679082 -0.08794332 -0.10298897 0.4072823 -0.3115861 0.344734 0.6674633
0.16865328 0.667887 0.009243026 0.48075265 -0.20264164 0.0054653673 0.4690808 -0.29115757
-0.15524316 0.6568727 -0.22100656 0.06820766 0.4249768 0.05915028 3.2889526e-05 0.16603798
-0.023937583 -0.17420758 -0.06146653 -0.23573162 0.464795 -0.14188606 0.3449204 0.25693125
-0.12332069 0.5094136 0.076720625 0.35974813 -0.071853176 -0.052034263 0.4279665 -0.017020214
0.0011688173 0.33229136 -0.14291947 -0.21714324 0.21628273 -0.07982871 -0.089705065 0.053795815
-0.10245742 0.09542978 -0.1392987 -0.25011405 0.6433896 -0.17063588 0.3972968 0.18965341
-0.04123135 0.3333059 0.12049705 0.25489292 -0.14890562 0.0414909 0.31835723 0.01830414
0.16627315 0.33323446 0.008524021 -0.18094248 0.24755874 -0.07305166 -0.27139065 0.17519757
0.032076344 0.037864983 -0.15627576 0.07108414 -0.09029666 0.1890611 -0.04497625 -0.018539831
-0.0223535 -0.03447947 0.07038656 0.055280536 -0.17457207 0.13792732 -0.053194985 -0.18311304
0.12800041 -0.11621164 -0.0263834 -0.02583149 -0.057972953 0.19351038 -0.10739228 -0.032227397
-0.1697801 -0.15433694 0.09856811 -0.12919213 0.30651036 -0.22839776 0.32329875 0.34745035
0.044788748 0.58633614 0.0961636 0.28383344 0.035677753 -0.20221487 0.2817938 -0.0554944
-0.14542013 0.6347854 -0.18074769 0.081883475 0.32147166 -0.02385676 -0.2618872 0.11802372
-0.0052686334 0.14176902 -0.05209288 0.04031393 0.13235709 -0.20393667 -0.025896534 -0.05813895
-0.026256382 -0.1192716 -0.14443764 -0.07168563 -0.17929204 0.19493082 0.1678533 -0.16725633
0.107712686 0.14967427 -0.05659978 0.17998877 0.009294957 0.18654647 -0.1979463 0.030062765
0.00508146 -0.19586752 -0.11173542 -0.12907656 0.590784 -0.10721646 0.14005181 0.20440781
-0.15521596 0.5119086 0.20103613 0.6234136 -0.19518842 -0.059440404 0.4280858 -0.12780614
-0.025817394 0.52110803 -0.20857391 -0.26872435 0.69940746 -0.20059149 0.019129355 0.008364439
0.068143725 0.16170368 -0.09277221 0.12623683 -0.004526958 0.13379806 0.07251838 -0.15331024
-0.0019416362 0.12548095 -0.1626175 -0.12630391 -0.21166575 -0.061821684 0.059140503 -0.20503798
0.011374503 0.19251344 0.12215829 -0.038909297 0.068683326 0.1422688 -0.09527794 0.19608462
0.099247694 0.35862264 0.45147076 0.6895404 -0.23621239 0.6822163 -0.28621772 -0.22039992
-0.1538086 -0.41238964 -0.08887193 -0.16641256 0.43178025 0.54083884 -0.14178807 0.59977996
00000000: e025 ca3c f036 ef3c ee13 2bbe 7a08 55be
00000010: 1ede 943e ed27 09be 594c 753e c038 7f3e
00000020: a0fa dfbc c300 163f 78c7 a03d 9cb6 f73e
00000030: 36ef fabd 0072 1dbb 80c3 d43e 3da0 ed3b
00000040: df0b 49be 4f30 1c3f 2424 8abd d4be 93bc
00000050: 67c9 193f 34b5 b9bd f000 2abe 6e24 333e
00000060: fc49 15be e3c8 12be 404b 19be 395e f8bd
00000070: 1d76 dc3e 9241 1ebc bc61 aa3e ee67 003f
00000080: b8d2 e6bc cde0 e53e 4856 ca3d 9081 183f
00000090: 0cf6 72bd 103e 4cbe e2a6 cc3e 169f 2abe
000000a0: 3037 18be 1c1e dd3e 23c9 33bd edae 35bc
000000b0: 7e90 b43e c89d b3bc 8a01 45bd a44b d03d
000000c0: a473 4d3e 7413 8bbd a11b b4bd e2eb d2bd
000000d0: 4e87 d03e 3788 9fbe fa80 b03e e0de 2a3f
000000e0: 72b3 2c3e a4fa 2a3f 1070 173c 3625 f63e
000000f0: 4a81 4fbe d316 b33b 5c2b f03e 9b12 95be
00000100: 10f8 1ebe cf28 283f 8b4f 62be 75b0 8b3d
00000110: 8f96 d93e 9047 723d dcf2 0938 dc05 2a3e
00000120: c018 c4bc 7963 32be 54c4 7bbd a163 71be
00000130: 9cf9 ed3e 944a 11be 6899 b03e 7e8c 833e
00000140: 8f8f fcbd ee68 023f b41f 9d3d e830 b83e
00000150: c227 93bd e121 55bd 6d1e db3e fa6d 8bbc
00000160: 0033 993a 1822 aa3e 7b59 12be cc5a 5ebe
00000170: 3879 5d3e 3c7d a3bd 4ab7 b7bd 0059 5c3d
00000180: 32d5 d1bd b070 c33d 52a4 0ebe f30e 80be
00000190: 2eb5 243f 2cbb 2ebe 7c6a cb3e 8134 423e
000001a0: 34e2 28bd 12a7 aa3e 28c7 f63d 5381 823e
000001b0: b77a 18be 5df2 293d b8ff a23e 90f2 953c
000001c0: 8243 2a3e b59d aa3e 56a8 0b3c fc48 39be
000001d0: 0a80 7d3e 1c9c 95bd b7f3 8abe fe66 333e
000001e0: 7c62 033d 5018 1b3d c106 20be 9094 913d
000001f0: 75ed b8bd 3c99 413e 0439 38bd d8e0 97bc
00000200: b01e b7bc 583a 0dbd d426 903d d86d 623d
00000210: 05c3 32be d23c 0d3e fce2 59bd fc81 3bbe
00000220: 8a12 033e 5e00 eebd 0022 d8bc 909c d3bc
00000230: 0c75 6dbd 9627 463e 7cf0 dbbd e000 04bd
00000240: d6da 2dbe 810a 1ebe 14de c93d f14a 04be
00000250: edee 9c3e 1ae1 69be 6a87 a53e 03e5 b13e
00000260: 6874 373d 201a 163f 6cf1 c43d 9e52 913e
00000270: d622 123d 6a11 4fbe 4747 903e 194e 63bd
00000280: 04e9 14be 4c81 223f ec15 39be 86b2 a73d
00000290: ef97 a43e 406f c3bc 1416 86be 6cb6 f13d
000002a0: 80a4 acbb e62b 113e 585f 55bd 3820 253d
000002b0: 9e88 073e c6d4 50be f824 d4bc 1c23 6ebd
000002c0: a017 d7bc ab44 f4bd 76e7 13be eacf 92bd
000002d0: 5598 37be f29b 473e bce1 2b3e 3e45 2bbe
000002e0: 7898 dc3d 3644 193e 2cd5 67bd fa4e 383e
000002f0: e049 183c 0a06 3f3e 6fb2 4abe 3046 f63c
00000300: 6082 a63b 7f91 48be 8ad5 e4bd a52c 04be
00000310: 9f3d 173f 4e94 dbbd be69 0f3e 4850 513e
00000320: eff0 1ebe 710c 033f 6adc 4d3e 0998 1f3f
00000330: 79df 47be c877 73bd 102e db3e 9ddf 02be
00000340: 007f d3bc 5667 053f 6694 55be 3d96 89be
00000350: 5e0c 333f db67 4dbe 2ab5 9c3c 000b 093c
00000360: f08e 8b3d a695 253e 5bff bdbd 3a44 013e
00000370: e056 94bb 5c02 093e 8484 943d 5cfd 1cbe
00000380: 807e feba 147e 003e 3485 26be d055 01be
00000390: e8be 58be bc38 7dbd 503d 723d 7af5 51be
000003a0: 205c 3a3c 3e22 453e 202e fa3d 5b5f 1fbd
000003b0: d8a9 8c3d eaae 113e 1521 c3bd 68ca 483e
000003c0: 6042 cb3d 639d b73e 2d27 e73e b885 303f
000003d0: a9e1 71be baa5 2e3f 218b 92be 84b0 61be
000003e0: 0080 1dbe bc24 d3be 7d02 b6bd 0e68 2abe
000003f0: 4d12 dd3e 6a74 0a3f e430 11be 2e8b 193f

fc1.bias f4 [16]
0.46092758 0.29584143 0.5192441 0.5897981 0.62044185 -0.15080139 0.57370585 -0.15815654
0.5562858 -0.21097206 0.64845455 0.3539485 0.28749272 0.43676275 0.55015284 -0.14172125
00000000: b3fe eb3e 8778 973e 2eed 043f 02fd 163f
00000010: 47d5 1e3f ae6b 1abe 63de 123f caf3 21be
00000020: bf68 0e3f 0f09 58be 1e01 263f bd38 b53e
00000030: 3f32 933e 5e9f df3e d1d6 0c3f 601f 11be

fc2.weight f4 [1, 16]
-0.5381041 -0.47267953 -0.53670657 -0.649372 -0.59890157 0.06777799 -0.7079323 -0.19792604
-0.5462537 0.06562394 0.58606595 -0.3927632 -0.5044008 0.71540284 0.73127705 0.13698763
00000000: 31c1 09bf 0d03 f2be 9a65 09bf 3e3d 26bf
00000010: 9d51 19bf 30cf 8a3d 0d3b 35bf 20ad 4abe
00000020: 48d7 0bbf d865 863d 6b08 163f 4218 c9be
00000030: 6920 01bf a424 373f f934 3b3f 7c46 0c3e
