models/model.pt (torch, 3977 bytes, 3 tensors)

fc1.weight f4 [16, 24]
0	0xbdd7bc82	-0.10534002
1	0x3ed5235e	0.41628546
2	0x3f05f78b	0.52330846
3	0x3f10bd68	0.5653901
4	0xbd572545	-0.052525777
5	0x3f0e9771	0.5569983
6	0xbc767390	-0.015042201
7	0xbd187a7b	-0.03722618
8	0xbdbe0345	-0.09277967
9	0xbe171809	-0.14755262
10	0xbd6bf1b8	-0.057603568
11	0xbe8cf04d	-0.27527085
12	0x3f34452b	0.7041804
13	0x3f697e82	0.9120866
14	0xbe183b11	-0.14866282
15	0x3ec97140	0.39344215
16	0xbe0a7232	-0.13520125
17	0xbce993f8	-0.02851294
18	0x3f30fceb	0.6913592
19	0x3f05d853	0.5228321
20	0xbe1ebb9e	-0.15501258
21	0xbd5a4ea4	-0.053297654
22	0x3ee666bf	0.45000264
23	0xbdd08e68	-0.10183412
24	0x3e063d3e	0.131093
25	0x3c6aa8ec	0.014322501
26	0xbe1be53a	-0.15224162
27	0xbe883bfc	-0.26608264
28	0xbe43642a	-0.19081178
29	0x3ccb5afa	0.024823654
30	0xbdec6e31	-0.11544455
31	0x3e42de74	0.19030172
32	0x3ca7f4a8	0.020502403
33	0x3e311a7a	0.17295256
34	0xbdc52145	-0.09625486
35	0xbda61cd7	-0.081109695
36	0x3c07c427	0.008286512
37	0xbd498e40	-0.049207926
38	0xbe1f8904	-0.15579611
39	0xbdf740c7	-0.12072902
40	0x3d096fdc	0.033553943
41	0xbe1579bf	-0.14597224
42	0x3d4e7868	0.050407797
43	0x3d6a8457	0.057255115
44	0xbe1a7932	-0.15085295
45	0x3dc59674	0.09647837
46	0x3c22954a	0.009923289
47	0xbdd4fe65	-0.104000844
48	0x3de7abb8	0.113120496
49	0x3b8a1c20	0.0042147785
50	0xbe29db53	-0.16587572
51	0x3d9fc92c	0.07802042
52	0x3d7d7f50	0.061888993
53	0xbe25bdc2	-0.16185668
54	0x3c4ca2e8	0.012490012
55	0xbd6f7f72	-0.05847115
56	0x3c940b08	0.018071666
57	0xbe28405a	-0.16430798
58	0xbd656e0c	-0.056013152
59	0xbe5ba016	-0.21447787
60	0xbe4c6667	-0.19960938
61	0x3e273ba4	0.16331345
62	0xbe0ed3b0	-0.1394794
63	0xbd05e9bc	-0.03269361
64	0xbe471aa3	-0.19443755
65	0xbd06bc29	-0.032894287
66	0x3dea1fc0	0.11431837
67	0x3c659250	0.014011934
68	0x3d11b380	0.035571575
69	0xbdd9e8ed	-0.1064013
70	0xbe3ad24a	-0.18244281
71	0x3d743b48	0.059626848
72	0x3e4f0034	0.20214921
73	0x3eadf758	0.3397777
74	0x3e924162	0.28565508
75	0x3e9bd30e	0.3043446
76	0xbe4f2ad5	-0.20231183
77	0x3ea1bc0a	0.31588775
78	0xbd2905a1	-0.041265134
79	0xbe630a65	-0.22171934
80	0x3d98b464	0.07456282
81	0xbd201335	-0.039080817
82	0xbd6f0774	-0.058356717
83	0xbe1ffd94	-0.15624076
84	0x3f0e6dac	0.55636096
85	0x3e8e128c	0.27748525
86	0xbc417e67	-0.011809922
87	0x3ee43610	0.44572496
88	0x3e415140	0.1887865
89	0xbd21ca19	-0.039499376
90	0x3ee82b94	0.45345747
91	0x3ea8f8ef	0.3300242
92	0xbd3a8582	-0.04553748
93	0xbcf5bbd0	-0.029996783
94	0x3ede272e	0.43389267
95	0xbdfa422a	-0.12219651
96	0x3e27be0e	0.16381094
97	0x3ecadea9	0.39623
98	0x3e9e7b43	0.30953416
99	0x3f07991e	0.52968013
100	0xbe907913	-0.28217372
101	0x3e7640a2	0.24048093
102	0xbe4b0a01	-0.19828035
103	0xbb82bd73	-0.0039898693
104	0x3e33ddf8	0.17565143
105	0xbdf1bea9	-0.11803944
106	0x3dfa1804	0.12211612
107	0xbdc02c93	-0.09383502
108	0x3e24b043	0.16082864
109	0x3e84f098	0.25964808
110	0xbe4a83df	-0.19776867
111	0x3e9c7852	0.30560547
112	0x3c4b6240	0.012413561
113	0xbe5ec0d7	-0.2175325
114	0x3ee0e445	0.43924156
115	0x3ec6b024	0.3880626
116	0xbdb5e1c5	-0.08880953
117	0xbe009a75	-0.1255892
118	0x3eee0aca	0.46492606
119	0x3e1c0bc2	0.1523886
120	0xbc8a37d8	-0.016872332
121	0xbda201c4	-0.07910493
122	0xbe33ee68	-0.17571414
123	0xbdef8581	-0.11695386
124	0x3f37ca71	0.71793276
125	0xbd90ea3f	-0.07075929
126	0x3ec5fe7a	0.38670713
127	0x3ea67626	0.32512015
128	0xbd4fa6f0	-0.050696313
129	0x3f2a659c	0.66561294
130	0xbbb947c0	-0.005654305
131	0x3ef21b05	0.4728624
132	0xbe2fe918	-0.17178762
133	0xbd158913	-0.036507677
134	0x3f1e3e14	0.61813474
135	0x3cdc293e	0.026875135
136	0x3dd9e0b8	0.10638565
137	0x3f3dbad9	0.7411323
138	0xbd4fb61c	-0.050710782
139	0xbe5c1920	-0.2149396
140	0x3f2e48cc	0.6807983
141	0x3d1bb30c	0.03801255
142	0xbe12bf93	-0.14330892
143	0x3de44d30	0.11147535
144	0x3e082a5a	0.13297406
145	0x3e98fecc	0.29881895
146	0x3ee8f843	0.4550191
147	0x3ed8f199	0.42371824
148	0xbe2e7151	-0.17035414
149	0x3ea0d9e3	0.31416234
150	0xbdd90ccb	-0.10598143
151	0xbe4c17bf	-0.19930933
152	0x3d0cdf7c	0.03439282
153	0xbe91167f	-0.28337476
154	0xbe3dd62e	-0.18538734
155	0xbd893cfa	-0.067010835
156	0x3eae9ce3	0.3410407
157	0x3ef1600b	0.47143587
158	0x3d0a0834	0.03369923
159	0x3eed2cab	0.4632314
160	0x3c00f840	0.007871687
161	0xbe8283ab	-0.2549108
162	0x3e9df953	0.30854282
163	0x3e8f1de7	0.279525
164	0x3d01e16d	0.031709123
165	0x3d87ef38	0.06637424
166	0x3f01d7d0	0.5071993
167	0x3c1a7860	0.009428114
168	0x3df13ad0	0.11778796
169	0xbd0a908c	-0.033829257
170	0xbdf549d2	-0.11976971
171	0xbe74bd70	-0.2390039
172	0x3f085e08	0.5326848
173	0xbdd79e94	-0.10528293
174	0x3f2880e2	0.6582166
175	0x3f0a3388	0.5398488
176	0x3d88ec20	0.06685662
177	0x3f35f9f2	0.7108451
178	0x3d796668	0.060888678
179	0x3eac2950	0.3362527
180	0xbd98fddc	-0.07470295
181	0xbd8e9b62	-0.06963231
182	0x3ee05d9c	0.43821418
183	0x3d0dc6ac	0.034613296
184	0x3d2bcee8	0.041945368
185	0x3eb7a1ea	0.35865718
186	0x3d0f5b83	0.03499938
187	0x3d023e2c	0.031797573
188	0x3e2028f8	0.15640628
189	0xbe1f411c	-0.15552181
190	0xbe8c543c	-0.27408016
191	0x3def7e20	0.11693978
192	0x3df3d274	0.11905375
193	0x3e177e41	0.14794256
194	0x3eac25d9	0.33622625
195	0x3ed9e06e	0.4255404
196	0xbea603b9	-0.32424715
197	0x3ec15d23	0.3776637
198	0xbe938dd8	-0.28819156
199	0xbe08a305	-0.13343437
200	0x3c815488	0.015787378
201	0xbe5d86b0	-0.2163341
202	0xbe0359e5	-0.12827261
203	0xbe8e2f81	-0.27770618
204	0x3efecbe7	0.4976494
205	0x3e7a4e09	0.2444383
206	0xbdafcf57	-0.08584469
207	0x3f0c40ce	0.54786384
208	0xbd885560	-0.06656909
209	0xbe57cbbb	-0.21073811
210	0x3ef513eb	0.4786676
211	0x3e662414	0.224747
212	0xbd266d2a	-0.04063145
213	0xbd43e278	-0.0478234
214	0x3ef89c0e	0.4855656
215	0x3e449286	0.1919652
216	0x3d91d558	0.0712077
217	0xbe4befe7	-0.19915734
218	0xbd02e4e0	-0.031956553
219	0xbe9ee6aa	-0.31035358
220	0x3f391834	0.72302556
221	0xbe788dff	-0.24272917
222	0x3ed88157	0.42286178
223	0x3ec01b37	0.37520763
224	0x3e4afa24	0.19821984
225	0x3f0e27b7	0.5552935
226	0x3dbde064	0.09271315
227	0x3e9dcd01	0.30820468
228	0x3b3dab2e	0.0028941142
229	0xbe1ee45f	-0.15516804
230	0x3f0c089a	0.54700625
231	0x3d3752c8	0.04475668
232	0x3d770ae8	0.060313135
233	0x3e4e2520	0.2013135
234	0xbe336a3b	-0.17520992
235	0xbe0dd212	-0.13849667
236	0x3ecac7c2	0.39605528
237	0xbe2f6b0a	-0.17130676
238	0x3d7309e5	0.059335608
239	0x3e0525ea	0.13002744
240	0x3d7dad58	0.06193289
241	0xbd8d5920	-0.06901765
242	0xbd728adc	-0.059214458
243	0xbe5e75ae	-0.21724579
244	0xbe18ecaa	-0.1493403
245	0x3c7820cb	0.015144537
246	0xbdfb7834	-0.12278786
247	0x3d5a2030	0.053253353
248	0x3cd090a8	0.025459602
249	0x3e32167a	0.17391387
250	0x3d6127e8	0.0549697
251	0xbd9b279a	-0.07575913
252	0xbd7cabb3	-0.061687183
253	0xbd98686a	-0.074417904
254	0x3df9e068	0.12201005
255	0xbe1d1a0e	-0.1534197

fc1.bias f4 [16]
0	0x3e4c974b	0.19979589
1	0xbe1955e1	-0.14974166
2	0xbe13e8ec	-0.14444321
3	0x3e76eee7	0.24114572
4	0x3eccce30	0.4000106
5	0x3f04eecf	0.51926893
6	0x3e8b0644	0.27153218
7	0x3f0d35e9	0.55160385
8	0x3f01ee5a	0.5075432
9	0x3f14150e	0.57844627
10	0xbe5fe01a	-0.21862832
11	0x3efb2f80	0.49059677
12	0xbdf12084	-0.1177378
13	0x3ee05815	0.438172
14	0x3f17c60d	0.59286577
15	0x3eef674d	0.467585

fc2.weight f4 [1, 16]
0	0x3ef1a3ba	0.47195226
1	0xbde4c2a1	-0.11169935
2	0x3db874e2	0.090066686
3	0x3eea33d1	0.45742658
4	0x3f101f3e	0.5629767
5	0xbf21a374	-0.63140035
6	0x3f048d57	0.5177817
7	0xbf50c2ca	-0.81547225
8	0x3efbc5b8	0.49174285
9	0xbf6f21d7	-0.9341101
10	0xbdd09fa9	-0.10186703
11	0xbf3e8bf0	-0.7443228
12	0x3d2aa200	0.0416584
13	0x3f02a4d3	0.5103275
14	0xbf07335b	-0.5281274
15	0x3f103b3d	0.5634039
